work1_LeNet+MNIST/savemodel/LeNet5.onnx (onnx, 247830 bytes, 8 tensors)

conv1.weight f4 [6, 1, 5, 5]
0.038287606 -0.10831823 -0.18991807 -0.11205379 0.04876234 -0.23257788 -0.37772477 -0.2874524
0.059050478 0.091267705 -0.15560545 -0.16164096 -0.09549055 0.404327 0.27058566 -0.106386036
0.12200702 0.2781938 0.38556838 -0.020615153 -0.06684374 0.0024070507 0.33814275 0.22422963
-0.2256256 -0.016957203 -0.08325626 -0.3144428 -0.011804642 0.17393668 0.27005437 0.49917892
0.64851564 0.2205626 -0.0032286819 0.17604215 0.3900508 0.4424358 0.4735194 0.091974065
-0.6337055 -0.39574495 -0.23204082 0.17005444 -0.052972566 -0.43490854 -0.640403 -0.70138305
-0.57223475 0.050219864 -0.13991274 0.17952286 -0.05151186 -0.031809777 -0.30769098 0.033275627
0.25195745 -0.012981248 0.04742838 -0.37598225 -0.053379823 0.2432047 -0.009353679 -0.00942807
-0.43172348 -0.20849693 0.2153339 0.36610535 0.032561097 -0.29396445 -0.23724307 0.1882856
0.26094642 0.099840306 -0.01744027 0.03341651 -0.2350114 0.0013994542 -0.0388705 0.3499067
-0.4243387 -0.4536181 -0.452786 -0.3460709 -0.27711284 -0.2665598 -0.36392853 -0.2584743
-0.19036275 -0.2926951 0.11197748 0.30387542 0.39819676 0.34975225 -0.008854302 0.2707247
0.3881512 0.17744695 0.047722694 0.022306552 -0.061613694 0.22329232 0.19278105 -0.52553964
-0.89013577 -0.33703193 0.275302 0.60691005 0.108361915 -0.39680073 -0.096326694 -0.047960635
0.21009439 0.7168805 0.3543802 0.01630327 -0.07301474 -0.04767954 0.31904337 0.10429797
-0.08065425 0.124608986 0.07741243 -0.020044077 0.04071037 -0.014239145 0.15542641 0.32242113
0.045078795 -0.07320553 0.25930497 0.37299266 -0.11347355 -0.15220189 -0.26978192 0.45025685
0.22029485 -0.20185633 -0.3353028 -0.23644488 0.30866322 -0.057730943 -0.38428405 -0.23216324
-0.24381176 -0.0012958598 -0.15026218 -0.2038675 -0.017827569 -0.23467
00000000: 77d3 1c3d f3d5 ddbd e279 42be 757c e5bd
00000010: 05bb 473d e528 6ebe 2465 c1be f62c 93be
00000020: eade 713d 90ea ba3d 0957 1fbe 3585 25be
00000030: 8d90 c3bd f303 cf3e 348a 8a3e ece0 d9bd
00000040: d1de f93d 6b6f 8e3e 3869 c53e 1ce1 a8bc
00000050: 5fe5 88bd 9cbf 1d3b 0c21 ad3e 749c 653e
00000060: 660a 67be d5e9 8abc 4282 aabd a6fe a0be
00000070: 4268 41bc 751c 323e 9144 8a3e 6194 ff3e
00000080: 1f05 263f 2adb 613e 4b98 53bb 6544 343e
00000090: bdb4 c73e f286 e23e 2371 f23e e65c bc3d
000000a0: 863a 22bf 159f cabe 1c9c 6dbe c022 2e3e
000000b0: c3f9 58bd 55ac debe 73f1 23bf d78d 33bf
000000c0: fa7d 12bf 58b3 4d3d 4945 0fbe d7d4 373e
000000d0: 1afe 52bd f84a 02bd ac89 9dbe 064c 083d
000000e0: 9100 813e 4daf 54bc 4344 423d bf80 c0be
000000f0: cda4 5abd a70a 793e 2c40 19bc 3178 1abc
00000100: dc0a ddbe 3880 55be 7d80 5c3e 2972 bb3e
00000110: c95e 053d 8282 96be d9ef 72be f1cd 403e
00000120: c59a 853e 1379 cc3d e6de 8ebc c0df 083d
00000130: d4a6 70be e46d b73a ac36 1fbd f926 b33e
00000140: ec42 d9be a240 e8be 91d3 e7be 3430 b1be
00000150: bce1 8dbe 877a 88be d754 babe be56 84be
00000160: 74ee 42be 22dc 95be 7354 e53d 8f95 9b3e
00000170: 72e0 cb3e ba12 b33e a211 11bc 6e9c 8a3e
00000180: c1bb c63e a7b4 353e df78 433d 3bbc b63c
00000190: a45e 7cbd bea6 643e 6568 453e c489 06bf
000001a0: f0df 63bf 738f acbe 62f4 8c3e 755e 1b3f
000001b0: daec dd3d 7729 cbbe ee46 c5bd 5f72 44bd
000001c0: fc22 573e 7b85 373f 5271 b53e 6f8e 853c
000001d0: c188 95bd 9f4b 43bd a759 a33e 2d9a d53d
000001e0: 0e2e a5bd ff32 ff3d 688a 9e3d 7a33 a4bc
000001f0: ebbf 263d 4e4b 69bc 1a28 1f3e 6214 a53e
00000200: 8ba4 383d c8ec 95bd 9fc3 843e e5f8 be3e
00000210: d264 e8bd d0da 1bbe db20 8abe 1188 e63e
00000220: f994 613e 6db3 4ebe cfac abbe 9b1e 72be
00000230: 1b09 9e3e 4877 6cbd e1c0 c4be 33bc 6dbe
00000240: caa9 79be d7d9 a9ba 54de 19be a4c2 50be
00000250: 1f0b 92bc 554d 70be

conv2.weight f4 [16, 6, 5, 5]
0.07355897 -0.029700667 -0.06201978 0.01886931 -0.02941517 -0.046451326 -0.0037781666 -0.07638302
0.061800044 -0.08877168 -0.08030465 -0.0566375 -0.06035129 -0.06549555 -0.07364741 0.045384776
-0.02786061 -0.038839176 0.015782293 -0.07333806 -0.059051264 -0.025168885 -0.08028748 -0.034082945
0.005682258 0.00013163574 -0.056470152 0.039691705 -0.02181768 0.05795192 0.013685756 0.047189474
-0.093307756 -0.011035668 -0.074868426 -0.03615977 0.02159749 0.043813948 -0.094039746 -0.0051392294
-0.08091818 0.04416681 0.021584537 0.045681458 -0.03915963 -0.01110312 -0.032120425 -0.021872021
0.021415384 0.03453058 0.027862526 -0.070245124 0.025781263 -0.023659006 0.055553306 -0.038949735
-0.0755377 0.009268258 -0.041678276 0.04647356 0.0718748 -0.053783134 0.015112848 -0.024515135
0.037566945 0.017075948 0.0001125733 0.046950743 -0.056236792 0.019721648 0.082092315 0.054578796
-0.06430672 -0.06999391 0.07265727 0.02158821 0.0025506082 -0.013621384 0.036074236 -0.009754986
0.05457774 -0.04267847 -0.07324237 0.011911374 0.010749623 -0.018689228 -0.07219532 -0.067672044
-0.075778 0.029109389 0.053355567 -0.02334282 -0.07818778 -0.043598447 0.048323594 0.088441536
-0.018514339 0.029544462 0.10042783 0.048028376 -0.11131413 -0.07490027 0.06911731 -0.032361373
-0.04129647 -0.12964879 -0.1019884 0.01737601 0.01483579 -0.051763363 0.009035608 -0.001053553
0.02315132 -0.06427057 -0.056759704 0.120064236 -0.0013067096 -0.084122814 -0.041153397 -0.0010645015
0.10145404 0.03707801 -0.08859771 0.031094834 -0.09127026 0.030251596 0.036521427 -0.06494395
0.0064121163 -0.062963575 -0.06620332 0.033064567 -0.11995191 0.00256082 0.089198545 -0.021662794
-0.0394924 0.044263624 -0.008693876 0.046468444 0.15589653 -0.069676094 -0.0047080684 -0.023800215
0.02797663 0.08732455 0.023315486 -0.059496887 -0.0016275997 -0.074015066 0.10350607 -0.0471181
0.056955118 0.0041923774 4.6880075e-05 -0.013475481 0.19138981 0.20721382 0.027647631 -0.16531791
0.0040725064 0.1121135 -0.11371423 -0.19563474 -0.19479139 -0.21739689 -0.24656719 -0.13067517
-0.03384701 0.070093155 -0.08470072 -0.035638165 0.0048253313 0.10953461 0.010139581 0.08936628
0.14006141 -0.0013565633 -0.20557544 -0.19750269 -0.15205777 -0.1635469 -0.23279504 0.05828705
-0.045888465 0.02458984 0.10791996 0.3064934 0.18695123 -0.01857539 0.3665351 0.30925572
0.25532323 -0.2387954 -0.26242977 -0.24377516 -0.36356255 -0.36800727 -0.37252802 -0.32820976
0.013682312 -0.15157248 -0.12599806 0.13447371 0.09743852 0.11372891 -0.08699759 -0.010340891
-0.025970189 0.08991653 0.10267089 0.015248028 0.014197221 -0.02445845 -0.12884592 0.0028154189
0.045535482 -0.10501954 -0.17251699 -0.22866775 0.004141091 -0.01852107 -0.12526274 -0.032685235
-0.07503747 -0.13476829 -0.06671216 0.004093755 0.08371542 0.13528207 -0.25397012 -0.067066446
0.02186179 0.027117625 0.13007025 -0.0197102 -0.07669139 -0.08374695 -0.082048744 -0.082987905
-0.003990119 -0.03851657 -0.02847259 -0.0026499266 -0.0738644 0.17347917 0.20181644 0.13220383
0.05950737 0.04196376 -0.087892905 -0.28953835 -0.048225474 0.07508675 0.14256243 0.06407607
00000000: 16a6 963d d04e f3bc 7408 7ebd d093 9a3c
00000010: 15f8 f0bc bf43 3ebd 1e9b 77bb b36e 9cbd
00000020: 0b22 7d3d edcd b5bd c476 a4bd b9fc 67bd
00000030: ea32 77bd 8822 86bd 74d4 96bd 63e5 393d
00000040: ef3b e4bc d415 1fbd de49 813c 4432 96bd
00000050: bddf 71bd fa2e cebc c36d a4bd 8f9a 0bbd
00000060: 3c32 ba3b b307 0a39 3f4d 67bd c593 223d
00000070: feba b2bc fe5e 6d3d 393a 603c c049 413d
00000080: 2318 bfbd f2ce 34bc 9e54 99bd 441c 14bd
00000090: 38ed b03c 4176 333d e997 c0bd fb66 a8bb
000000a0: 6eb8 a5bd 42e8 343d 0ed2 b03c 7b1c 3b3d
000000b0: d965 20bd dce9 35bc b590 03bd f42c b3bc
000000c0: 516f af3c f06f 0d3d f43f e43c addc 8fbd
000000d0: 3a33 d33c 88d0 c1bc dd8b 633d c289 1fbd
000000e0: 82b3 9abd e4d9 173c d7b6 2abd 0f5b 3e3d
000000f0: 1833 933d b44b 5cbd e19b 773c f7d3 c8bc
00000100: ccdf 193d dce2 8b3c 5515 ec38 6c4f 403d
00000110: 8d58 66bd 4b8f a13c 0420 a83d 048e 5f3d
00000120: 3eb3 83bd f858 8fbd 56cd 943d c2d9 b03c
00000130: 1b28 273b 3a2c 5fbc 94c2 133d 60d3 1fbc
00000140: e98c 5f3d 9fcf 2ebd 1800 96bd ec27 433c
00000150: 301f 303c 271a 99bc 24db 93bd a497 8abd
00000160: 7f31 9bbd d076 ee3c 5e8b 5a3d 7139 bfbc
00000170: ea20 a0bd 4994 32bd f6ee 453d d620 b53d
00000180: 62ab 97bc 3a07 f23c 1bad cd3d 67b9 443d
00000190: aaf8 e3bd 5065 99bd 608d 8d3d 5c8d 04bd
000001a0: 7d26 29bd a7c2 04be 4bdf d0bd 2258 8e3c
000001b0: d011 733c d205 54bd 160a 143c 5f17 8aba
000001c0: d6a7 bd3c 4aa0 83bd dd7c 68bd 3de4 f53d
000001d0: e645 abba 9548 acbd 7790 28bd be86 8bba
000001e0: 23c7 cf3d 1ddf 173d b772 b5bd 98ba fe3c
000001f0: e7eb babd 32d2 f73c 7e97 153d 5501 85bd
00000200: bb1c d23b 0cf3 80bd 9b95 87bd b66e 073d
00000210: 59a9 f5bd 6ed3 273b baad b63d 2c76 b1bc
00000220: c8c2 21bd c64d 353d c270 0ebc b255 3e3d
00000230: 57a3 1f3e 57b2 8ebd 2446 9abb abf8 c2bc
00000240: 3f2f e53c 37d7 b23d 1e00 bf3c 02b3 73bd
00000250: 2f55 d5ba 3695 97bd fefa d33d e9fe 40bd
00000260: c549 693d 3660 893b 19a1 4438 44c8 5cbc
00000270: b1fb 433e dc2f 543e 497d e23c 1949 29be
00000280: a972 853b c39b e53d 02e3 e8bd 7954 48be
00000290: 6577 47be 4a9d 5ebe 1c7c 7cbe b6cf 05be
000002a0: 2aa3 0abd 008d 8f3d 9277 adbd 53f9 11bd
000002b0: d01d 9e3b ae53 e03d 7c20 263c ab05 b73d
000002c0: 426c 0f3e b6ce b1ba 5e82 52be 253e 4abe
000002d0: 08b5 1bbe d778 27be d361 6ebe 67be 6e3d
000002e0: 8bf5 3bbd a270 c93c 2405 dd3d b4ec 9c3e
000002f0: 2570 3f3e 6b2b 98bc 7daa bb3e c456 9e3e
00000300: bab9 823e c886 74be 325d 86be 32a0 79be
00000310: df24 babe 736b bcbe febb bebe 1c0b a8be
00000320: c72b 603c d135 1bbe a305 01be 7ab3 093e
00000330: d98d c73d b4ea e83d cb2b b2bd d76c 29bc
00000340: 6fbf d4bc 2826 b83d 1e45 d23d ddd2 793c
00000350: 769b 683c 165d c8bc 2ff0 03be e482 383b
00000360: 6a83 3a3d 7c14 d7bd 4ba8 30be e127 6abe
00000370: fdb1 873b 80b9 97bc e044 00be f4e0 05bd
00000380: 3fad 99bd b300 0abe 63a0 88bd e824 863b
00000390: fd72 ab3d 6287 0a3e 5f08 82be 225a 89bd
000003a0: 7f17 b33c c825 de3c 2331 053e 4977 a1bc
000003b0: 6010 9dbd 8583 abbd 2c09 a8bd 90f5 a9bd
000003c0: 8bbf 82bb 8dc3 1dbd 593f e9bc 64aa 2dbb
000003d0: 3846 97bd 86a4 313e f8a8 4e3e 7160 073e
000003e0: 00be 733d 31e2 2b3d 3201 b4bd 5f3e 94be
000003f0: 1388 45bd 15c7 993d e3fb 113e 513a 833d

fc1.weight f4 [120, 400]
-0.003101268 0.00725102 0.029866584 0.02619367 -0.02718708 -0.020224495 0.01774142 0.023682818
-0.010159685 0.00015117857 -0.023789946 0.04535145 -0.036407884 -0.015498877 0.009815502 0.020703679
0.026223473 0.046073426 -0.020898266 0.01851723 -0.010441367 0.0058524045 -0.007582709 -0.024220712
0.015920805 0.015808828 0.08635567 0.025977934 0.045562766 0.025629347 0.030990109 -0.09134886
0.02524394 0.08317672 -0.021618977 -0.029685069 -0.0036531535 0.047595967 -0.02228683 -0.014923749
-0.07031759 -0.05243921 -0.0614791 0.011248757 -0.091098234 -0.0174723 0.06669941 -0.04223807
-0.08170243 -0.026697945 -0.014980362 -0.09977747 -0.056705967 -0.039178535 -0.030383488 -0.01622354
-0.01559823 -0.0035761185 0.0048512067 -0.030116525 -0.028611414 0.004154821 0.018206008 0.035500683
-0.014248394 -0.0026493724 -0.0025505149 0.012765047 0.04031542 0.043402776 -0.02979188 0.05854434
0.043469053 0.05716922 -0.021148616 -0.043133594 0.0044598617 0.080689155 -0.022190463 0.00024279652
-0.09706955 0.041655537 0.040846553 0.0830339 -0.10923253 -0.0371685 -0.007172498 0.04548026
-0.03191926 -0.05339472 0.060706936 0.049606007 -0.014902596 0.05498735 -0.012225243 0.07169826
-0.07035165 0.074326895 0.036614507 -0.013033021 -0.07444149 -0.10957987 0.04479514 0.09207024
0.08063157 0.017394505 0.038442366 0.032640524 0.07842302 0.08236041 0.03204189 -0.02082065
-0.09024234 -0.10325594 -0.10232271 -0.016034657 -0.013270264 -0.0063740574 -0.15181401 -0.08944179
-0.046362516 -0.05920129 -0.04540968 -0.08664798 -0.02558453 -0.037204605 0.054491334 0.005456468
0.015697967 0.009554008 -0.0112566855 -0.0055842455 -0.004770755 0.0694713 -0.026387885 0.0059268596
0.033553403 0.03466467 -0.062046036 0.01645748 -0.03846702 0.055758543 0.030676091 -0.095497236
-0.018383328 -0.010094413 0.019069394 -0.08786721 -0.10488359 -0.043957278 -0.012602172 -0.035449065
-0.023135278 -0.026728073 -0.0735988 0.0706955 -0.06914796 -0.060707264 -0.12726985 -0.044947036
0.059647977 0.009034774 0.02953223 -0.07840055 0.10205014 0.003270928 0.03921728 0.022067705
-0.02827264 0.032729242 -0.024575984 0.023137333 0.012178685 0.014997805 0.061705045 -0.031760033
-0.042432565 0.06466524 0.023666073 0.0077183703 0.099919535 0.084924944 0.09632294 0.028375572
-0.006979104 0.065456316 0.043481395 -0.1305802 -0.1109117 -0.064451836 -0.040581334 -0.11897204
-0.04952655 -0.076339774 0.009366252 -0.024399966 -0.06037888 -0.051095963 -0.022655709 0.011236785
0.031127641 0.02415231 0.013885221 0.07551996 0.020957403 0.06498645 0.03428616 -0.015837315
-0.021364443 -0.03913146 0.03184984 0.06595308 0.0040616575 -0.037124556 0.025009943 0.028372532
-0.02205406 -0.09181608 -0.040704127 -0.099912964 -0.016977713 0.03201542 0.018925644 -0.038312834
-0.079922475 0.039476246 0.011535559 -0.06273588 0.027225124 0.027147332 -0.09606658 -0.08083135
0.051280413 0.07114243 0.058097504 -0.055517558 0.014447142 -0.042521205 0.0012667192 0.03088437
0.0077715265 0.037155874 0.037759054 0.034410678 0.0018964979 0.07215078 0.0198446 0.007956946
0.0075563644 0.003933747 -0.027062545 0.053004276 -0.044477645 0.0004547521 -0.041953567 -0.061541002
00000000: a53e 4bbb f799 ed3b c4aa f43c 1c94 d63c
00000010: 70b7 debc d7ad a5bc 7456 913c 7802 c23c
00000020: cf74 26bc b085 1e39 22e3 c2bc 71c2 393d
00000030: 6f20 15bd 00ef 7dbc 33d1 203c c39a a93c
00000040: 9cd2 d63c 7db7 3c3d d732 abbc 72b1 973c
00000050: 4412 2bbc 87c5 bf3b 6078 f8bb 846a c6bc
00000060: 596c 823c 8481 813c 3edb b03d adcf d43c
00000070: 06a0 3a3d a3f4 d13c f8de fd3c 1c15 bbbd
00000080: 61cc ce3c 8e58 aa3d 481a b1bc 1a2e f3bc
00000090: bf69 6fbb fdf3 423d df92 b6bc bd82 74bc
000000a0: ab02 90bd 7fca 56bd 82d1 7bbd b54c 383c
000000b0: b691 babd 1222 8fbc b399 883d d401 2dbd
000000c0: 9b53 a7bd a6b5 dabc 3170 75bc 2158 ccbd
000000d0: 8444 68bd ac79 20bd cbe6 f8bc 3be7 84bc
000000e0: b88f 7fbc 505d 6abb dff6 9e3b eeb6 f6bc
000000f0: 7c62 eabc 2a25 883b c424 953c 2a69 113d
00000100: 1972 69bc 18a1 2dbb 8a26 27bb 7d24 513c
00000110: c821 253d 1cc7 313d 1a0e f4bc 31cc 6f3d
00000120: 9b0c 323d 462a 6a3d dd3f adbc daac 30bd
00000130: 0824 923b 5b40 a53d c6c8 b5bc 3297 7e39
00000140: 66cc c6bd ff9e 2a3d b74e 273d ad0d aa3d
00000150: 4eb5 dfbd ff3d 18bd 4607 ebbb 8249 3a3d
00000160: c5bd 02bd 6cb4 5abd d6a7 783d ab2f 4b3d
00000170: 052a 74bc 6a3a 613d 634c 48bc 8ad6 923d
00000180: 8714 90bd b338 983d 18f9 153d 7488 55bc
00000190: c874 98bd 696b e0bd 1c7b 373d 528f bc3d
000001a0: 2a22 a53d ec7e 8e3c be75 1d3d 12b2 053d
000001b0: 409c a03d 93ac a83d 5b3e 033d 1190 aabc
000001c0: fad0 b8bd da77 d3bd 928e d1bd 1d5b 83bc
000001d0: 856b 59bc 78dd d0bb 2275 1bbe 422d b7bd
000001e0: 9fe6 3dbd 0d7d 72bd 80ff 39bd 7f74 b1bd
000001f0: a696 d1bc db63 18bd 4e32 5f3d 2ccc b23b
00000200: 0699 803c 6a88 1c3c f66d 38bc 0cfc b6bb
00000210: fe53 9cbb f846 8e3d 682b d8bc 1a36 c23b
00000220: 4b6f 093d 8afc 0d3d fc23 7ebd d6d1 863c
00000230: 988f 1dbd 1263 643d 6d4c fb3c 0e94 c3bd
00000240: a298 96bc 0963 25bc 6b37 9c3c b9f3 b3bd
00000250: 35cd d6bd 8c0c 34bd 5779 4ebc 0a33 11bd
00000260: 3286 bdbc d5f4 dabc f8ba 96bd cdc8 903d
00000270: 729d 8dbd 2ea8 78bd 0753 02be 621a 38bd
00000280: 7051 743d 9706 143c 93ed f13c 7890 a0bd
00000290: aaff d03d 115d 563b 4ca2 203d 55c7 b43c
000002a0: 069c e7bc 190f 063d 9353 c9bc 818a bd3c
000002b0: 1b89 473c 5ab9 753c 6ebe 7c3d cf16 02bd
000002c0: c5cd 2dbd 366f 843d 5adf c13c 62ea fc3b
000002d0: 9da2 cc3d 21ed ad3d f644 c53d e373 e83c
000002e0: f8b0 e4bb f60d 863d 8c19 323d d1b6 05be
000002f0: ac25 e3bd 53ff 83bd 9d38 26bd 9da7 f3bd
00000300: 5adc 4abd 0758 9cbd e974 193c 70e2 c7bc
00000310: d84f 77bd 004a 51bd 7798 b9bc 7e1a 383c
00000320: 65ff fe3c 11db c53c d77e 633c 35aa 9a3d
00000330: dcae ab3c 9e17 853d a56f 0c3d 42bd 81bc
00000340: 7c04 afbc 4f48 20bd fa74 023d 6912 873d
00000350: a717 853b eb0f 18bd a7e1 cc3c 836d e83c
00000360: b7aa b4bc 120a bcbd 5fb9 26bd 2b9f ccbd
00000370: d814 8bbc 9a22 033d f409 9b3c ebed 1cbd
00000380: 65ae a3bd d8b1 213d a4ff 3c3c ab7b 80bd
00000390: 3907 df3c 1564 de3c 8ebe c4bd e88a a5bd
000003a0: 690b 523d 1fb3 913d a6f7 6d3d 6166 63bd
000003b0: b5b3 6c3c b72a 2ebd 0b08 a63a 3801 fd3c
000003c0: 4aa8 fe3b c230 183d 3da9 1a3d 36f2 0c3d
000003d0: e993 f83a cac3 933d 2591 a23c da5d 023c
000003e0: 619b f73b a9e6 803b 45b2 ddbc 031b 593d
000003f0: 312e 36bd cb6b ee39 81d7 2bbd 6b12 7cbd

fc1.bias f4 [120]
-0.013321336 -0.056798443 0.030752275 -0.047681123 0.04929788 0.09445211 -0.040622517 0.04695715
-0.014809776 0.059415948 0.022295559 -0.0020938176 0.008768352 0.03449542 -0.037610162 0.0036979562
-0.04249266 0.005562171 0.016515903 -0.05066734 -0.03816478 -0.014982863 -0.013323328 -0.009468451
-0.020408235 0.02785206 0.057312433 0.014437238 0.03220369 -0.039338093 0.042666063 -0.015799547
-0.042631585 -0.063646935 0.0130459415 0.012215523 -0.028616356 0.008209073 -0.014536871 -0.0014984714
0.018807253 -0.046013117 0.00013568961 -0.004059611 -0.04572476 -0.009171029 -0.02091663 0.008383876
0.020894537 -0.02311183 0.018779648 -0.032447245 -0.017819189 -0.045190167 0.022029042 5.110978e-06
-0.027747165 -0.049880642 0.039756194 -0.0202229 0.03547685 -0.05722234 -0.052903254 -0.06445986
0.0042783557 0.0045706453 0.043715477 0.077355064 -0.004618245 0.011966088 -0.03555157 0.03691255
-0.042957783 -0.024050381 -0.03964054 -0.015748544 0.019030413 -0.032778718 0.041644707 -0.04432509
-0.0005670786 -0.00012359695 0.00012454462 -0.03595612 0.04593323 -0.0346432 0.06210143 -0.015081069
-0.01207525 0.01832473 0.02740466 0.014255366 0.04093929 0.014233005 0.0045577763 -0.0028968796
0.04459858 0.022013769 -0.038228642 -0.098927826 -0.037363723 0.016651563 -0.01643961 0.010844612
-0.0007933252 0.018164795 0.001840471 0.05791009 -0.026360381 -0.01370868 -0.017836334 -0.03359287
-0.001846345 -0.03435562 0.02746808 0.03785386 0.014123898 0.0029126843 -0.039536122 0.07833427
00000000: bc41 5abc 7ca5 68bd 32ec fb3c 484d 43bd
00000010: 93ec 493d 1c70 c13d cc63 26bd 2456 403d
00000020: b4a4 72bc 235e 733d 2da5 b63c 6e38 09bb
00000030: 22a9 0f3c 124b 0d3d 1d0d 1abd 6959 723b
00000040: c90c 2ebd df42 b63b 5c4c 873c 8f88 4fbd
00000050: ac52 1cbd af7a 75bc 174a 5abc 9021 1bbc
00000060: 2c2f a7bc 012a e43c 71c0 6a3d 2a8a 6c3c
00000070: 04e8 033d fb20 21bd 9cc2 2e3d 0d6e 81bc
00000080: 759e 2ebd 5359 82bd a5be 553c 9e23 483c
00000090: d96c eabc 597f 063c 0e2c 6ebc 5b68 c4ba
000000a0: ab11 9a3c 4078 3cbd e747 0e39 7c06 85bb
000000b0: e349 3bbd 1542 16bc 5a59 abbc 865c 093c
000000c0: 052b ab3c 0555 bdbc c7d7 993c 67e7 04bd
000000d0: 8cf9 91bc 5319 39bd 4076 b43c f77e ab36
000000e0: 064e e3bc a54f 4cbd 64d7 223d 7faa a5bc
000000f0: 2c50 113d f961 6abd 15b1 58bd 8803 84bd
00000100: 7331 8c3b 5ac5 953b 000f 333d 556c 9e3d
00000110: a654 97bb 690d 443c 869e 11bd 9d31 173d
00000120: 80f4 2fbd 4e05 c5bc 1e5e 22bd 1703 81bc
00000130: abe5 9b3c fa42 06bd a493 2a3d 3a8e 35bd
00000140: 00a8 14ba ce99 01b9 3198 0239 b946 13bd
00000150: 7c24 3c3d 07e6 0dbd 125e 7e3d 9716 77bc
00000160: 45d7 45bc bf1d 963c bd7f e03c 578f 693c
00000170: f5af 273d 8d31 693c 6659 953b 93d9 3dbb
00000180: 00ad 363d 3856 b43c a395 1cbd ac9a cabd
00000190: b40a 19bd dc68 883c 5cac 86bc 99ad 313c
000001a0: 27f7 4fba 56ce 943c f63b f13a 2133 6d3d
000001b0: baf1 d7bc 5f9a 60bc 811d 92bc ad98 09bd
000001c0: 0f01 f2ba 7bb8 0cbd bd04 e13c a60c 1b3d
000001d0: ec67 673c bce2 3e3b a1f0 21bd b86d a03d

fc2.weight f4 [84, 120]
0.049297966 0.1670125 -0.13937518 0.04026926 0.25053293 0.011545841 -0.07677579 -0.057127114
-0.07052811 -0.013939852 0.12858166 -0.120086506 -0.04631422 -0.020278629 -0.080864005 -0.12578742
-0.07032265 0.074062765 0.022495722 0.1360324 0.02540374 0.04454573 -0.01446497 -0.010640139
-0.01498909 0.082244635 0.07567678 -0.033206005 -0.0046929154 0.0027036848 -0.031948388 -0.05748624
-0.10823763 -0.08642743 0.08389215 0.0039243936 0.24375711 -0.06998125 -0.094031 0.015341561
0.0067729666 0.048039135 -0.20256387 0.098238215 -0.090316586 0.06702513 -0.064235725 -0.057947125
-0.063653566 0.12925437 -0.072743244 -0.012500637 -0.12906687 -0.09338581 -0.11583233 -0.057428665
0.11560838 -0.017257228 0.03964818 -0.115693815 -0.12875664 0.04844275 -0.004564855 -0.096597426
-0.02527003 -0.108068354 0.05014038 -0.007789365 0.02848289 0.0767343 -0.001048928 -0.04369882
0.118563935 0.0213812 -0.05169925 0.06826398 0.1137822 0.057351958 0.031052161 -0.044453308
0.034817945 0.06495934 -0.037902396 0.013202411 0.04936989 0.057548285 0.14632365 -0.118939415
0.045684624 -0.021210214 0.046237525 -0.18010429 -0.068221144 0.12961172 -0.013619616 -0.033822186
0.026668224 0.118788205 -0.21200578 0.06959317 0.013940721 -0.05454738 -0.0476017 -0.037054982
0.079764076 -0.094589844 -0.051098105 -0.2517855 -0.11639852 -0.04158966 -0.007980236 0.06489199
0.025865301 -0.089951366 -0.037408397 -0.116498254 0.027989998 -0.014729992 -0.08565003 -0.021552986
0.06449573 -0.011369087 -0.057415444 0.10861855 0.045124758 -0.06326873 -0.048365243 0.060042333
-0.04814862 -0.084280975 -0.038771242 -0.14176534 -0.005597121 0.116680704 0.01471714 0.006793506
-0.19939443 0.04538082 -0.024777943 -0.04603026 -0.12163475 0.09785107 0.00077348854 0.053497616
0.095449716 -0.021902101 -0.0662861 0.077871256 0.056227475 -0.12119429 0.035046645 0.052041173
0.02313063 -0.10474077 -0.10682364 0.24578486 -0.040703952 0.010302394 0.083108775 -0.067538984
0.03977108 0.07807846 -0.078523986 0.08567158 -0.18317567 -0.06518718 -0.07605161 -0.09105732
-0.16638047 -0.13154623 -0.06745151 -0.078880936 -0.0028082845 0.032151144 0.0020946772 0.027097654
0.12061242 0.0402647 -0.087523684 0.01166654 0.0403349 -0.01181008 0.03432675 -0.19408779
-0.05240032 0.052122947 0.049369287 -0.04903352 0.051993888 0.045799017 0.112109624 0.010224965
0.062445022 -0.0880326 -0.09522326 0.049765717 0.10666504 -0.015501846 -0.029308189 0.13034905
0.12235987 -0.10984359 0.037206095 0.07412896 -0.056061268 -0.14484021 -0.06478588 0.13804199
-0.0014135578 -0.1691937 0.07020075 0.03576436 -0.13469504 0.19060569 0.020070937 0.04237999
-0.026583513 -0.10199123 -0.23722719 -0.11833409 0.016274039 -0.11771394 0.070891485 -0.10165194
0.008867467 0.08142539 0.11293594 0.17461501 0.03773545 0.13254207 0.0040753908 0.06650999
0.1309415 0.07757262 -0.018577127 -0.066428855 0.00047611422 -0.030587263 0.043342944 0.10131466
0.013433089 -0.034456734 -0.09111597 -0.04223209 -0.056747295 -0.03943782 0.08579002 -0.05275983
-0.08217003 -0.08788819 -0.029542457 -0.065364994 0.06929885 0.017352551 -0.009202958 -0.03271589
00000000: aaec 493d 5305 2b3e 5eb8 0ebe 61f1 243d
00000010: da45 803e c42a 3d3c a03c 9dbd 1ffe 69bd
00000020: 0b71 90bd fa63 64bc e9aa 033e eaef f5bd
00000030: fbb3 3dbd 5e1f a6bc 079c a5bd 6bce 00be
00000040: 5205 90bd 38ae 973d f348 b83c 144c 0b3e
00000050: 811b d03c 9575 363d 7bfe 6cbc fa53 2ebc
00000060: cd94 75bc e06f a83d 6dfc 9a3d 0503 08bd
00000070: 07c7 99bb 4e30 313b 50dc 02bd b176 6bbd
00000080: b1ab ddbd dd00 b1bd a6cf ab3d 3398 803b
00000090: 779b 793e 5452 8fbd 5393 c0bd 2c5b 7b3c
000000a0: c3ef dd3b afc4 443d e76c 4fbe 1e31 c93d
000000b0: e7f7 b8bd 7944 893d 058e 83bd f759 6dbd
000000c0: cd5c 82bd 425b 043e 69fa 94bd 79cf 4cbc
000000d0: 1b2a 04be 0f41 bfbd 8039 edbd 523a 6bbd
000000e0: 16c4 ec3d 085f 8dbc 2166 223d e1f0 ecbd
000000f0: c8d8 03be e86b 463d c794 95bb dfd4 c5bd
00000100: 1803 cfbc f152 ddbd 0060 4d3d ee3d ffbb
00000110: f354 e93c df26 9d3d 2f7c 89ba 89fd 32bd
00000120: a6d1 f23d a027 af3c 98c2 53bd fccd 8b3d
00000130: a406 e93d e3e9 6a3d 1a61 fe3c ac14 36bd
00000140: 439d 0e3d 6709 853d 8b3f 1bbd ed4e 583c
00000150: 1538 4a3d c0b7 6b3d ded5 153e 8296 f3bd
00000160: cd1f 3b3d 0bc1 adbc 8f63 3d3d 426d 38be
00000170: 87b7 8bbd efb8 043e cf24 5fbc 2289 0abd
00000180: 5277 da3c 3b47 f33d 0b18 59be dd86 8e3d
00000190: 9f67 643c 136d 5fbd 00fa 42bd f7c6 17bd
000001a0: 595b a33d 52b8 c1bd 3f4c 51bd 07ea 80be
000001b0: 5962 eebd eb59 2abd 89bf 02bc 17e6 843d
000001c0: 78e3 d33c 6c38 b8bd 8c39 19bd a396 eebd
000001d0: 484b e53c 1056 71bc 4869 afbd e38f b0bc
000001e0: 5616 843d 6845 3abc 752c 6bbd 6773 de3d
000001f0: bdd4 383d 0993 81bd a21a 46bd f3ee 753d
00000200: 7d37 45bd 819b acbd 98ce 1ebd ef2a 11be
00000210: 0e68 b7bb 4bf6 ee3d 2920 713c 0f9c de3b
00000220: 0e2e 4cbe 3de1 393d 1dfb cabc 3a8a 3cbd
00000230: a41b f9bd 2466 c83d f0c3 4a3a 5120 5b3d
00000240: 247b c33d 096c b3bc 02c1 87bd f77a 9f3d
00000250: c84e 663d b634 f8bd 128d 0f3d 2029 553d
00000260: 727c bd3c 5482 d6bd 5ac6 dabd 07af 7b3e
00000270: 30b9 26bd 5fcb 283c ef34 aa3d e151 8abd
00000280: 00e7 223d 9ae7 9f3d 2fd1 a0bd 9574 af3d
00000290: 6792 3bbe db80 85bd f2c0 9bbd 437c babd
000002a0: a45f 2abe 0eb4 06be 0424 8abd 548c a1bd
000002b0: 320b 38bb ebb0 033d da46 093b e6fb dd3c
000002c0: a503 f73d 99ec 243d 9e3f b3bd 0425 3f3c
000002d0: 3536 253d 117f 41bc 359a 0c3d f3be 46be
000002e0: b8a1 56bd df7e 553d 7337 4a3d 5fd7 48bd
000002f0: 8bf7 543d c097 3b3d bb99 e53d 9d86 273c
00000300: 5ac6 7f3d 704a b4bd 6a04 c3bd 23d7 4b3d
00000310: 3373 da3d 74fb 7dbc ba17 f0bc 397a 053e
00000320: d097 fa3d adf5 e0bd 6b65 183d edd0 973d
00000330: 80a0 65bd fe50 14be 76ae 84bd e15a 0d3e
00000340: 2147 b9ba 1d41 2dbe 69c5 8f3d a67d 123d
00000350: 7fed 09be 232e 433e ce6b a43c a496 2d3d
00000360: abc5 d9bc c7e0 d0bd afeb 72be 2559 f2bd
00000370: 2251 853c 0214 f1bd 8e2f 913d e42e d0bd
00000380: da48 113c 5bc2 a63d f54a e73d 47ce 323e
00000390: 7d90 1a3d 1cb9 073e db8a 853b 6436 883d
000003a0: 8715 063e 65de 9e3d 0f2f 98bc da0b 88bd
000003b0: f89e f939 2492 fabc 5f88 313d 0f7e cf3d
000003c0: 7516 5c3c 8122 0dbd 029b babd 8efb 2cbd
000003d0: da6f 68bd 8d89 21bd aeb2 af3d b11a 58bd
000003e0: c348 a8bd b9fe b3bd 0603 f2bc 15de 85bd
000003f0: 8eec 8d3d f026 8e3c 01c8 16bc 1901 06bd

fc2.bias f4 [84]
0.060052447 0.033350352 -0.024789335 -0.06296887 0.034083247 0.038337152 0.106234215 0.060142197
0.05029473 0.02323656 -0.0063705766 -0.018493848 0.055623446 -0.060984835 0.17309582 0.109553576
0.029690085 -0.022067817 0.038702644 0.19867854 0.026150195 -0.006728756 -0.08357744 -0.020881424
0.054586723 -0.028631479 -0.02793682 -0.013422295 -0.032566328 0.03086729 0.0004569369 0.016110511
-0.02479322 -0.0042265686 0.04500895 0.1263637 0.0076152715 -0.058788773 0.014583827 -0.004129088
0.023632655 0.012446324 -0.005309352 0.031487614 0.035028774 -0.0525854 0.08422092 0.12266211
0.023715733 0.02486499 -0.03493444 0.08362851 0.05454539 0.046892233 -0.10218458 0.18439034
0.037833907 0.028334532 -0.010886553 -0.05780229 0.014938115 0.08352061 0.032199956 -0.0027624052
0.013980887 -0.057623547 0.050072897 -0.01395143 0.10576776 0.07845412 0.07013406 0.024305953
0.11133875 -0.032261036 0.019900411 0.05913404 -0.044607524 -0.072498076 0.06434934 -0.03010186
0.09485355 -0.017060937 -0.0030245094 0.04828859
00000000: 8ef9 753d 619a 083d 0113 cbbc d3f5 80bd
00000010: e09a 0b3d 6b07 1d3d 5391 d93d aa57 763d
00000020: d901 4e3d 995a be3c 45c0 d0bb 6980 97bc
00000030: 69d5 633d 3ccb 79bd 0840 313e a05d e03d
00000040: 9f38 f33c 91c7 b4bc aa86 1e3d 6372 4b3e
00000050: ef38 d63c e57c dcbb a62a abbd 850f abbc
00000060: 5496 5f3d 908c eabc c2db e4bc 30e9 5bbc
00000070: 4564 05bd 66dd fc3c 0891 ef39 31fa 833c
00000080: 271b cbbc 077f 8abb 4e5b 383d 7c65 013e
00000090: 8789 f93b 7fcc 70bd 01f1 6e3c 4d4d 87bb
000000a0: 4599 c13c abeb 4b3c 13fa adbb 28f9 003d
000000b0: 557a 0f3d ca63 57bd 057c ac3d 4636 fb3d
000000c0: 7f47 c23c aab1 cb3c 6a17 0fbd 6d45 ab3d
000000d0: fd6a 5f3d 1212 403d 2646 d1bd d2d0 3c3e
000000e0: baf7 1a3d d21d e83c 835d 32bc 18c2 6cbd
000000f0: ffbe 743c db0c ab3d 1ae4 033d 7809 35bb
00000100: 1710 653c ab06 6cbd 3d19 4d3d 8a94 64bc
00000110: c49c d83d 8eac a03d 72a2 8f3d 471d c73c
00000120: 9205 e43d 2624 04bd 3006 a33c 8936 723d
00000130: 61b6 36bd df79 94bd 96c9 833d 2d98 f6bc
00000140: 9442 c23d 61c3 8bbc d936 46bb 42ca 453d

fc3.weight f4 [10, 84]
-0.13237396 -0.103566326 0.08518409 -0.0057095694 0.03000394 -0.07010243 0.38335526 -0.026597604
-0.12995677 -0.03369196 -0.10003771 0.079471335 -0.068480164 0.019124756 -0.056453932 -0.07488157
0.12847416 -0.008050006 -0.16923355 -0.19534679 0.19585352 -0.03337853 -0.0114867175 -0.038574
-0.08473796 -0.02598196 0.026476098 0.08093204 -0.13824904 -0.17316018 -0.11359426 -0.1298526
0.07474268 -0.08282267 0.018815769 -0.22476682 -0.12948056 0.040209983 -0.028811568 -0.06391579
-0.13235992 -0.04422501 -0.010836293 -0.12437041 0.049260467 -0.07677803 -0.23190466 -0.1158867
0.32009706 0.07039831 -0.18839844 -0.05928662 -0.15842803 -0.019421725 -0.09052826 -0.08475456
-0.27469176 -0.1471631 0.11956708 0.49190012 0.06455749 0.3027864 -0.22620669 -0.08615742
-0.02019908 -0.044618137 -0.19459097 0.3211587 0.043557864 -0.006435344 -0.08061848 -0.10362451
-0.1565708 -0.14302032 0.047861543 0.031066913 -0.14098233 0.07688841 0.3117128 -0.09236031
-0.048606083 -0.08450616 -0.1123583 -0.3554546 0.0030763599 -0.19537531 -0.022943826 0.09173052
-0.053507872 0.3114526 -0.15970892 0.16548961 -0.12124773 0.0402224 -0.12121544 -0.029851977
0.1271036 -0.042482276 0.27457452 -0.23411901 -0.15986006 -0.14155516 -0.11150668 0.5137349
-0.04343247 -0.36138585 0.10609178 -0.0037530917 -0.22816348 -0.17579345 0.103510775 0.023519881
-0.12589884 -0.027033586 0.15404008 0.09400721 -0.106597625 -0.24487787 0.24733746 0.16213942
-0.1358105 0.09484384 -0.06091979 -0.017610684 0.033890612 0.05158152 0.24783708 0.022288473
-0.20272449 -0.0022372229 0.043194506 0.19861929 0.005837423 -0.014844666 -0.08370338 -0.112970844
-0.23622887 -0.037553858 -0.09096077 0.10767548 0.040292513 -0.019797018 0.01284212 -0.077376604
-0.16512257 0.16104159 -0.17000857 0.060278036 0.03163101 0.064239115 0.24800096 -0.29301307
-0.082399316 0.15544246 -0.20315467 -0.039381742 -0.08597513 -0.0711 -0.2397426 -0.060369696
-0.05226966 -0.05382699 -0.08260569 0.2895165 0.39788085 -0.1234229 0.083355404 0.11098598
-0.19112541 -0.15685263 0.045404874 0.121397145 -0.07646874 -0.15382117 -0.26542562 -0.04612822
0.07129599 0.32026964 -0.08927493 0.07409859 -0.116557226 -0.035780795 -0.1688699 -0.21060544
0.06252051 0.19475059 -0.0025965131 -0.31758997 -0.04113422 -0.067482986 -0.0088322805 0.13993703
0.23474096 -0.059398852 -0.024899362 -0.035960995 -0.120385975 -0.046675716 0.14503296 0.11666956
-0.06712409 0.12985656 0.20104368 -0.35319057 0.05254051 0.040238474 0.08003818 0.08000483
0.27871397 -0.014414828 0.14954296 0.28116578 0.36210456 -0.042791188 0.1622269 0.09318074
0.14316575 -0.28267083 -0.109597996 0.10577392 -0.004038817 -0.047835466 -0.04074946 0.2861337
0.12590364 -0.058996696 0.108593896 -0.16369154 0.10668038 0.17342705 0.16129076 -0.07314218
-0.1026631 -0.10857267 0.10236783 0.07368971 -0.023596287 -0.11046845 0.02823695 -0.053931
-0.14222856 -0.07427539 0.22268657 0.07440588 0.2857063 -0.07697146 -0.27576965 -0.33490333
0.04474756 -0.21533749 0.2682106 -0.2660725 -0.10267479 -0.18539363 -0.032719478 -0.060992762
00000000: 0a8d 07be 951a d4bd ff74 ae3d 5717 bbbb
00000010: d3ca f53c dd91 8fbd 2447 c43e 38e3 d9bc
00000020: 6313 05be 9500 0abd 92e0 ccbd dec1 a23d
00000030: 543f 8cbd 85ab 9c3c 3d3c 67bd 825b 99bd
00000040: bb8e 033e 2ce4 03bc 8f4b 2dbe fd08 48be
00000050: d38d 483e edb7 08bd c932 3cbc c5ff 1dbd
00000060: 188b adbd 1fd8 d4bc 67e4 d83c b3bf a53d
00000070: 2891 0dbe e750 31be 1ba4 e8bd 14f8 04be
00000080: b112 993d ef9e a9bd 8723 9a3c 4629 66be
00000090: 8d96 04be 39b3 243d 3d06 ecbc 48e6 82bd
000000a0: 5c89 07be 4925 35bd b58a 31bc eab5 febd
000000b0: 58c5 493d cd3d 9dbd 6a78 6dbe 0256 edbd
000000c0: c3e3 a33e fd2c 903d 85eb 40be 87d6 72bd
000000d0: f53a 22be 4f1a 9fbc e166 b9bd cc93 adbd
000000e0: 66a4 8cbe ecb1 16be 96df f43d 55da fb3e
000000f0: b836 843d d206 9b3e baa2 67be 4d73 b0bd
00000100: 8b78 a5bc 82c1 36bd db42 47be ea6e a43e
00000110: bb69 323d 94df d2bb 4d1b a5bd 1639 d4bd
00000120: 1954 20be eb73 12be 770a 443d 0a80 fe3c
00000130: ac5d 10be ac77 9d3d d298 9f3e 6727 bdbd
00000140: 2c17 47bd 9111 adbd 1c1c e6bd 25fe b5be
00000150: c19c 493b 7710 48be b1f4 bbbc 36dd bb3d
00000160: 122b 5bbd b776 9f3e bc8a 23be 1c76 293e
00000170: bb50 f8bd 3ec0 243d cd3f f8bd 228c f4bc
00000180: 7227 023e e501 2ebd 0895 8c3e e5bc 6fbe
00000190: 5bb2 23be d6f3 10be 9d5d e4bd 2184 033f
000001a0: 3fe6 31bd 9107 b9be a646 d93d 6ef6 75bb
000001b0: b0a3 69be 3303 34be 75fd d33d c4ac c03c
000001c0: a0eb 00be 8a75 ddbc afbc 1d3e da86 c03d
000001d0: db4f dabd 44c1 7abe 0846 7d3e e007 263e
000001e0: e811 0bbe 7d3d c23d 0887 79bd 4844 90bc
000001f0: e2d0 0a3d 2547 533d 01c9 7d3e 5196 b63c
00000200: 0297 4fbe 5f9e 12bb b9ec 303d db62 4b3e
00000210: da47 bf3b 0b37 73bc ad6c abbd 425d e7bd
00000220: fbe5 71be 13d2 19bd a449 babd f684 dc3d
00000230: c309 253d 5b2d a2bc c167 523c a077 9ebd
00000240: e415 29be 16e8 243e ba16 2ebe 1ae6 763d
00000250: 858f 013d cc8f 833d f7f3 7d3e cf05 96be
00000260: f9c0 a8bd 4f2c 1f3e c707 50be c04e 21bd
00000270: bb13 b0bd e09c 91bd 167f 75be 3746 77bd
00000280: b618 56bd b179 5cbd 2c2d a9bd 823b 943e
00000290: 0ab7 cb3e 25c5 fcbd 3db6 aa3d 9e4c e33d
000002a0: 61b6 43be fa9d 20be 76fa 393d 119f f83d
000002b0: a59b 9cbd 4c83 1dbe dee5 87be f2f0 3cbd
000002c0: a203 923d 62fa a33e c6d5 b6bd 00c1 973d
000002d0: 8eb5 eebd e28e 12bd 3bec 2cbe f4a8 57be
000002e0: c10a 803d b36c 473e 432a 2abb 279b a2be
000002f0: 5b7c 28bd 8534 8abd 45b5 10bc a74b 0f3e
00000300: ef5f 703e 364c 73bd bff9 cbbc d64b 13bd
00000310: ec8c f6bd 092f 3fbd 8583 143e 73f0 ee3d
00000320: 5b78 89bd 1ef9 043e 65de 4d3e 65d5 b4be
00000330: b834 573d 19d1 243d 0feb a33d 93d9 a33d
00000340: 99b3 8e3e 2c2c 6cbc ca21 193e f6f4 8f3e
00000350: c565 b93e d045 2fbd cf1e 263e 8bd5 be3d
00000360: 0b9a 123e 3bba 90be ea74 e0bd ff9f d83d
00000370: 0d58 84bb 1fef 43bd e8e8 26bd 1e80 923e
00000380: e2ec 003e 85a6 71bd 7a66 de3d c19e 27be
00000390: 3e7b da3d dc96 313e 6829 253e 91cb 95bd
000003a0: 0841 d2bd 595b debd 3aa6 d13d a1ea 963d
000003b0: 004d c1bc 483d e2bd 2d51 e73c c1e6 5cbd
000003c0: 5da4 11be b21d 98bd f307 643e 1c62 983d
000003d0: 1948 923e 36a3 9dbd ae31 8dbe 7378 abbe
000003e0: 3849 373d 6e81 5cbe e652 893e a83a 88be
000003f0: 2947 d2bd d4d7 3dbe dc04 06bd 8cd3 79bd

fc3.bias f4 [10]
0.017677335 0.1437629 -0.03726096 -0.016862907 -0.024630325 -0.02563464 -0.1742187 -0.0067846132
0.15771772 -0.051349584
00000000: 0fd0 903c 9536 133e f39e 18bd 1424 8abc
00000010: 89c5 c9bc bdff d1bc 6366 32be 7651 debb
00000020: c180 213e f153 52bd
